{"backend": "tensorflow", "config": {"name": "model_1", "layers": [{"name": "naip_input", "config": {"name": "naip_input", "dtype": "float32", "batch_input_shape": [null, 120, 120, 3], "sparse": false}, "inbound_nodes": [], "class_name": "InputLayer"}, {"name": "conv2d_1", "config": {"kernel_size": [1, 1], "padding": "same", "use_bias": false, "data_format": "channels_last", "name": "conv2d_1", "filters": 16, "bias_constraint": null, "bias_initializer": {"config": {}, "class_name": "Zeros"}, "kernel_initializer": {"config": {"mode": "fan_avg", "distribution": "uniform", "seed": null, "scale": 1.0}, "class_name": "VarianceScaling"}, "kernel_regularizer": {"config": {"l2": 9.999999747378752e-05, "l1": 0.0}, "class_name": "L1L2"}, "activity_regularizer": null, "trainable": true, "bias_regularizer": null, "dilation_rate": [1, 1], "kernel_constraint": null, "activation": "linear", "strides": [1, 1]}, "inbound_nodes": [[["naip_input", 0, 0, {}]]], "class_name": "Conv2D"}, {"name": "batch_normalization_1", "config": {"momentum": 0.99, "scale": true, "gamma_initializer": {"config": {}, "class_name": "Ones"}, "epsilon": 0.001, "name": "batch_normalization_1", "trainable": true, "moving_mean_initializer": {"config": {}, "class_name": "Zeros"}, "gamma_regularizer": {"config": {"l2": 9.999999747378752e-05, "l1": 0.0}, "class_name": "L1L2"}, "center": true, "beta_initializer": {"config": {}, "class_name": "Zeros"}, "beta_regularizer": {"config": {"l2": 9.999999747378752e-05, "l1": 0.0}, "class_name": "L1L2"}, "moving_variance_initializer": {"config": {}, "class_name": "Ones"}, "axis": -1, "gamma_constraint": null, "beta_constraint": null}, "inbound_nodes": [[["conv2d_1", 0, 0, {}]]], "class_name": "BatchNormalization"}, {"name": "activation_1", "config": {"name": "activation_1", "trainable": true, "activation": "relu"}, "inbound_nodes": [[["batch_normalization_1", 0, 0, {}]]], "class_name": "Activation"}, {"name": "conv2d_2", "config": {"kernel_size": [3, 3], "padding": "same", "use_bias": false, "data_format": "channels_last", "name": "conv2d_2", "filters": 12, "bias_constraint": null, "bias_initializer": {"config": {}, "class_name": "Zeros"}, "kernel_initializer": {"config": {"mode": "fan_avg", "distribution": "uniform", "seed": null, "scale": 1.0}, "class_name": "VarianceScaling"}, "kernel_regularizer": {"config": {"l2": 9.999999747378752e-05, "l1": 0.0}, "class_name": "L1L2"}, "activity_regularizer": null, "trainable": true, "bias_regularizer": null, "dilation_rate": [1, 1], "kernel_constraint": null, "activation": "linear", "strides": [1, 1]}, "inbound_nodes": [[["activation_1", 0, 0, {}]]], "class_name": "Conv2D"}, {"name": "dropout_1", "config": {"name": "dropout_1", "noise_shape": null, "trainable": true, "seed": null, "rate": 0.1}, "inbound_nodes": [[["conv2d_2", 0, 0, {}]]], "class_name": "Dropout"}, {"name": "concatenate_1", "config": {"name": "concatenate_1", "axis": -1, "trainable": true}, "inbound_nodes": [[["conv2d_1", 0, 0, {}], ["dropout_1", 0, 0, {}]]], "class_name": "Concatenate"}, {"name": "batch_normalization_2", "config": {"momentum": 0.99, "scale": true, "gamma_initializer": {"config": {}, "class_name": "Ones"}, "epsilon": 0.001, "name": "batch_normalization_2", "trainable": true, "moving_mean_initializer": {"config": {}, "class_name": "Zeros"}, "gamma_regularizer": {"config": {"l2": 9.999999747378752e-05, "l1": 0.0}, "class_name": "L1L2"}, "center": true, "beta_initializer": {"config": {}, "class_name": "Zeros"}, "beta_regularizer": {"config": {"l2": 9.999999747378752e-05, "l1": 0.0}, "class_name": "L1L2"}, "moving_variance_initializer": {"config": {}, "class_name": "Ones"}, "axis": -1, "gamma_constraint": null, "beta_constraint": null}, "inbound_nodes": [[["concatenate_1", 0, 0, {}]]], "class_name": "BatchNormalization"}, {"name": "activation_2", "config": {"name": "activation_2", "trainable": true, "activation": "relu"}, "inbound_nodes": [[["batch_normalization_2", 0, 0, {}]]], "class_name": "Activation"}, {"name": "conv2d_3", "config": {"kernel_size": [3, 3], "padding": "same", "use_bias": false, "data_format": "channels_last", "name": "conv2d_3", "filters": 12, "bias_constraint": null, "bias_initializer": {"config": {}, "class_name": "Zeros"}, "kernel_initializer": {"config": {"mode": "fan_avg", "distribution": "uniform", "seed": null, "scale": 1.0}, "class_name": "VarianceScaling"}, "kernel_regularizer": {"config": {"l2": 9.999999747378752e-05, "l1": 0.0}, "class_name": "L1L2"}, "activity_regularizer": null, "trainable": true, "bias_regularizer": null, "dilation_rate": [1, 1], "kernel_constraint": null, "activation": "linear", "strides": [1, 1]}, "inbound_nodes": [[["activation_2", 0, 0, {}]]], "class_name": "Conv2D"}, {"name": "dropout_2", "config": {"name": "dropout_2", "noise_shape": null, "trainable": true, "seed": null, "rate": 0.1}, "inbound_nodes": [[["conv2d_3", 0, 0, {}]]], "class_name": "Dropout"}, {"name": "concatenate_2", "config": {"name": "concatenate_2", "axis": -1, "trainable": true}, "inbound_nodes": [[["conv2d_1", 0, 0, {}], ["dropout_1", 0, 0, {}], ["dropout_2", 0, 0, {}]]], "class_name": "Concatenate"}, {"name": "batch_normalization_3", "config": {"momentum": 0.99, "scale": true, "gamma_initializer": {"config": {}, "class_name": "Ones"}, "epsilon": 0.001, "name": "batch_normalization_3", "trainable": true, "moving_mean_initializer": {"config": {}, "class_name": "Zeros"}, "gamma_regularizer": {"config": {"l2": 9.999999747378752e-05, "l1": 0.0}, "class_name": "L1L2"}, "center": true, "beta_initializer": {"config": {}, "class_name": "Zeros"}, "beta_regularizer": {"config": {"l2": 9.999999747378752e-05, "l1": 0.0}, "class_name": "L1L2"}, "moving_variance_initializer": {"config": {}, "class_name": "Ones"}, "axis": -1, "gamma_constraint": null, "beta_constraint": null}, "inbound_nodes": [[["concatenate_2", 0, 0, {}]]], "class_name": "BatchNormalization"}, {"name": "activation_3", "config": {"name": "activation_3", "trainable": true, "activation": "relu"}, "inbound_nodes": [[["batch_normalization_3", 0, 0, {}]]], "class_name": "Activation"}, {"name": "conv2d_4", "config": {"kernel_size": [1, 1], "padding": "same", "use_bias": false, "data_format": "channels_last", "name": "conv2d_4", "filters": 32, "bias_constraint": null, "bias_initializer": {"config": {}, "class_name": "Zeros"}, "kernel_initializer": {"config": {"mode": "fan_avg", "distribution": "uniform", "seed": null, "scale": 1.0}, "class_name": "VarianceScaling"}, "kernel_regularizer": {"config": {"l2": 9.999999747378752e-05, "l1": 0.0}, "class_name": "L1L2"}, "activity_regularizer": null, "trainable": true, "bias_regularizer": null, "dilation_rate": [1, 1], "kernel_constraint": null, "activation": "linear", "strides": [1, 1]}, "inbound_nodes": [[["activation_3", 0, 0, {}]]], "class_name": "Conv2D"}, {"name": "dropout_3", "config": {"name": "dropout_3", "noise_shape": null, "trainable": true, "seed": null, "rate": 0.1}, "inbound_nodes": [[["conv2d_4", 0, 0, {}]]], "class_name": "Dropout"}, {"name": "average_pooling2d_1", "config": {"padding": "valid", "trainable": true, "strides": [2, 2], "data_format": "channels_last", "pool_size": [2, 2], "name": "average_pooling2d_1"}, "inbound_nodes": [[["dropout_3", 0, 0, {}]]], "class_name": "AveragePooling2D"}, {"name": "batch_normalization_4", "config": {"momentum": 0.99, "scale": true, "gamma_initializer": {"config": {}, "class_name": "Ones"}, "epsilon": 0.001, "name": "batch_normalization_4", "trainable": true, "moving_mean_initializer": {"config": {}, "class_name": "Zeros"}, "gamma_regularizer": {"config": {"l2": 9.999999747378752e-05, "l1": 0.0}, "class_name": "L1L2"}, "center": true, "beta_initializer": {"config": {}, "class_name": "Zeros"}, "beta_regularizer": {"config": {"l2": 9.999999747378752e-05, "l1": 0.0}, "class_name": "L1L2"}, "moving_variance_initializer": {"config": {}, "class_name": "Ones"}, "axis": -1, "gamma_constraint": null, "beta_constraint": null}, "inbound_nodes": [[["average_pooling2d_1", 0, 0, {}]]], "class_name": "BatchNormalization"}, {"name": "activation_4", "config": {"name": "activation_4", "trainable": true, "activation": "relu"}, "inbound_nodes": [[["batch_normalization_4", 0, 0, {}]]], "class_name": "Activation"}, {"name": "conv2d_5", "config": {"kernel_size": [3, 3], "padding": "same", "use_bias": false, "data_format": "channels_last", "name": "conv2d_5", "filters": 12, "bias_constraint": null, "bias_initializer": {"config": {}, "class_name": "Zeros"}, "kernel_initializer": {"config": {"mode": "fan_avg", "distribution": "uniform", "seed": null, "scale": 1.0}, "class_name": "VarianceScaling"}, "kernel_regularizer": {"config": {"l2": 9.999999747378752e-05, "l1": 0.0}, "class_name": "L1L2"}, "activity_regularizer": null, "trainable": true, "bias_regularizer": null, "dilation_rate": [1, 1], "kernel_constraint": null, "activation": "linear", "strides": [1, 1]}, "inbound_nodes": [[["activation_4", 0, 0, {}]]], "class_name": "Conv2D"}, {"name": "dropout_4", "config": {"name": "dropout_4", "noise_shape": null, "trainable": true, "seed": null, "rate": 0.1}, "inbound_nodes": [[["conv2d_5", 0, 0, {}]]], "class_name": "Dropout"}, {"name": "concatenate_3", "config": {"name": "concatenate_3", "axis": -1, "trainable": true}, "inbound_nodes": [[["average_pooling2d_1", 0, 0, {}], ["dropout_4", 0, 0, {}]]], "class_name": "Concatenate"}, {"name": "batch_normalization_5", "config": {"momentum": 0.99, "scale": true, "gamma_initializer": {"config": {}, "class_name": "Ones"}, "epsilon": 0.001, "name": "batch_normalization_5", "trainable": true, "moving_mean_initializer": {"config": {}, "class_name": "Zeros"}, "gamma_regularizer": {"config": {"l2": 9.999999747378752e-05, "l1": 0.0}, "class_name": "L1L2"}, "center": true, "beta_initializer": {"config": {}, "class_name": "Zeros"}, "beta_regularizer": {"config": {"l2": 9.999999747378752e-05, "l1": 0.0}, "class_name": "L1L2"}, "moving_variance_initializer": {"config": {}, "class_name": "Ones"}, "axis": -1, "gamma_constraint": null, "beta_constraint": null}, "inbound_nodes": [[["concatenate_3", 0, 0, {}]]], "class_name": "BatchNormalization"}, {"name": "activation_5", "config": {"name": "activation_5", "trainable": true, "activation": "relu"}, "inbound_nodes": [[["batch_normalization_5", 0, 0, {}]]], "class_name": "Activation"}, {"name": "conv2d_6", "config": {"kernel_size": [3, 3], "padding": "same", "use_bias": false, "data_format": "channels_last", "name": "conv2d_6", "filters": 12, "bias_constraint": null, "bias_initializer": {"config": {}, "class_name": "Zeros"}, "kernel_initializer": {"config": {"mode": "fan_avg", "distribution": "uniform", "seed": null, "scale": 1.0}, "class_name": "VarianceScaling"}, "kernel_regularizer": {"config": {"l2": 9.999999747378752e-05, "l1": 0.0}, "class_name": "L1L2"}, "activity_regularizer": null, "trainable": true, "bias_regularizer": null, "dilation_rate": [1, 1], "kernel_constraint": null, "activation": "linear", "strides": [1, 1]}, "inbound_nodes": [[["activation_5", 0, 0, {}]]], "class_name": "Conv2D"}, {"name": "dropout_5", "config": {"name": "dropout_5", "noise_shape": null, "trainable": true, "seed": null, "rate": 0.1}, "inbound_nodes": [[["conv2d_6", 0, 0, {}]]], "class_name": "Dropout"}, {"name": "concatenate_4", "config": {"name": "concatenate_4", "axis": -1, "trainable": true}, "inbound_nodes": [[["average_pooling2d_1", 0, 0, {}], ["dropout_4", 0, 0, {}], ["dropout_5", 0, 0, {}]]], "class_name": "Concatenate"}, {"name": "batch_normalization_6", "config": {"momentum": 0.99, "scale": true, "gamma_initializer": {"config": {}, "class_name": "Ones"}, "epsilon": 0.001, "name": "batch_normalization_6", "trainable": true, "moving_mean_initializer": {"config": {}, "class_name": "Zeros"}, "gamma_regularizer": {"config": {"l2": 9.999999747378752e-05, "l1": 0.0}, "class_name": "L1L2"}, "center": true, "beta_initializer": {"config": {}, "class_name": "Zeros"}, "beta_regularizer": {"config": {"l2": 9.999999747378752e-05, "l1": 0.0}, "class_name": "L1L2"}, "moving_variance_initializer": {"config": {}, "class_name": "Ones"}, "axis": -1, "gamma_constraint": null, "beta_constraint": null}, "inbound_nodes": [[["concatenate_4", 0, 0, {}]]], "class_name": "BatchNormalization"}, {"name": "activation_6", "config": {"name": "activation_6", "trainable": true, "activation": "relu"}, "inbound_nodes": [[["batch_normalization_6", 0, 0, {}]]], "class_name": "Activation"}, {"name": "conv2d_7", "config": {"kernel_size": [1, 1], "padding": "same", "use_bias": false, "data_format": "channels_last", "name": "conv2d_7", "filters": 64, "bias_constraint": null, "bias_initializer": {"config": {}, "class_name": "Zeros"}, "kernel_initializer": {"config": {"mode": "fan_avg", "distribution": "uniform", "seed": null, "scale": 1.0}, "class_name": "VarianceScaling"}, "kernel_regularizer": {"config": {"l2": 9.999999747378752e-05, "l1": 0.0}, "class_name": "L1L2"}, "activity_regularizer": null, "trainable": true, "bias_regularizer": null, "dilation_rate": [1, 1], "kernel_constraint": null, "activation": "linear", "strides": [1, 1]}, "inbound_nodes": [[["activation_6", 0, 0, {}]]], "class_name": "Conv2D"}, {"name": "dropout_6", "config": {"name": "dropout_6", "noise_shape": null, "trainable": true, "seed": null, "rate": 0.1}, "inbound_nodes": [[["conv2d_7", 0, 0, {}]]], "class_name": "Dropout"}, {"name": "average_pooling2d_2", "config": {"padding": "valid", "trainable": true, "strides": [2, 2], "data_format": "channels_last", "pool_size": [2, 2], "name": "average_pooling2d_2"}, "inbound_nodes": [[["dropout_6", 0, 0, {}]]], "class_name": "AveragePooling2D"}, {"name": "batch_normalization_7", "config": {"momentum": 0.99, "scale": true, "gamma_initializer": {"config": {}, "class_name": "Ones"}, "epsilon": 0.001, "name": "batch_normalization_7", "trainable": true, "moving_mean_initializer": {"config": {}, "class_name": "Zeros"}, "gamma_regularizer": {"config": {"l2": 9.999999747378752e-05, "l1": 0.0}, "class_name": "L1L2"}, "center": true, "beta_initializer": {"config": {}, "class_name": "Zeros"}, "beta_regularizer": {"config": {"l2": 9.999999747378752e-05, "l1": 0.0}, "class_name": "L1L2"}, "moving_variance_initializer": {"config": {}, "class_name": "Ones"}, "axis": -1, "gamma_constraint": null, "beta_constraint": null}, "inbound_nodes": [[["average_pooling2d_2", 0, 0, {}]]], "class_name": "BatchNormalization"}, {"name": "activation_7", "config": {"name": "activation_7", "trainable": true, "activation": "relu"}, "inbound_nodes": [[["batch_normalization_7", 0, 0, {}]]], "class_name": "Activation"}, {"name": "conv2d_8", "config": {"kernel_size": [3, 3], "padding": "same", "use_bias": false, "data_format": "channels_last", "name": "conv2d_8", "filters": 12, "bias_constraint": null, "bias_initializer": {"config": {}, "class_name": "Zeros"}, "kernel_initializer": {"config": {"mode": "fan_avg", "distribution": "uniform", "seed": null, "scale": 1.0}, "class_name": "VarianceScaling"}, "kernel_regularizer": {"config": {"l2": 9.999999747378752e-05, "l1": 0.0}, "class_name": "L1L2"}, "activity_regularizer": null, "trainable": true, "bias_regularizer": null, "dilation_rate": [1, 1], "kernel_constraint": null, "activation": "linear", "strides": [1, 1]}, "inbound_nodes": [[["activation_7", 0, 0, {}]]], "class_name": "Conv2D"}, {"name": "dropout_7", "config": {"name": "dropout_7", "noise_shape": null, "trainable": true, "seed": null, "rate": 0.1}, "inbound_nodes": [[["conv2d_8", 0, 0, {}]]], "class_name": "Dropout"}, {"name": "concatenate_5", "config": {"name": "concatenate_5", "axis": -1, "trainable": true}, "inbound_nodes": [[["average_pooling2d_2", 0, 0, {}], ["dropout_7", 0, 0, {}]]], "class_name": "Concatenate"}, {"name": "batch_normalization_8", "config": {"momentum": 0.99, "scale": true, "gamma_initializer": {"config": {}, "class_name": "Ones"}, "epsilon": 0.001, "name": "batch_normalization_8", "trainable": true, "moving_mean_initializer": {"config": {}, "class_name": "Zeros"}, "gamma_regularizer": {"config": {"l2": 9.999999747378752e-05, "l1": 0.0}, "class_name": "L1L2"}, "center": true, "beta_initializer": {"config": {}, "class_name": "Zeros"}, "beta_regularizer": {"config": {"l2": 9.999999747378752e-05, "l1": 0.0}, "class_name": "L1L2"}, "moving_variance_initializer": {"config": {}, "class_name": "Ones"}, "axis": -1, "gamma_constraint": null, "beta_constraint": null}, "inbound_nodes": [[["concatenate_5", 0, 0, {}]]], "class_name": "BatchNormalization"}, {"name": "activation_8", "config": {"name": "activation_8", "trainable": true, "activation": "relu"}, "inbound_nodes": [[["batch_normalization_8", 0, 0, {}]]], "class_name": "Activation"}, {"name": "conv2d_9", "config": {"kernel_size": [3, 3], "padding": "same", "use_bias": false, "data_format": "channels_last", "name": "conv2d_9", "filters": 12, "bias_constraint": null, "bias_initializer": {"config": {}, "class_name": "Zeros"}, "kernel_initializer": {"config": {"mode": "fan_avg", "distribution": "uniform", "seed": null, "scale": 1.0}, "class_name": "VarianceScaling"}, "kernel_regularizer": {"config": {"l2": 9.999999747378752e-05, "l1": 0.0}, "class_name": "L1L2"}, "activity_regularizer": null, "trainable": true, "bias_regularizer": null, "dilation_rate": [1, 1], "kernel_constraint": null, "activation": "linear", "strides": [1, 1]}, "inbound_nodes": [[["activation_8", 0, 0, {}]]], "class_name": "Conv2D"}, {"name": "dropout_8", "config": {"name": "dropout_8", "noise_shape": null, "trainable": true, "seed": null, "rate": 0.1}, "inbound_nodes": [[["conv2d_9", 0, 0, {}]]], "class_name": "Dropout"}, {"name": "concatenate_6", "config": {"name": "concatenate_6", "axis": -1, "trainable": true}, "inbound_nodes": [[["average_pooling2d_2", 0, 0, {}], ["dropout_7", 0, 0, {}], ["dropout_8", 0, 0, {}]]], "class_name": "Concatenate"}, {"name": "batch_normalization_9", "config": {"momentum": 0.99, "scale": true, "gamma_initializer": {"config": {}, "class_name": "Ones"}, "epsilon": 0.001, "name": "batch_normalization_9", "trainable": true, "moving_mean_initializer": {"config": {}, "class_name": "Zeros"}, "gamma_regularizer": {"config": {"l2": 9.999999747378752e-05, "l1": 0.0}, "class_name": "L1L2"}, "center": true, "beta_initializer": {"config": {}, "class_name": "Zeros"}, "beta_regularizer": {"config": {"l2": 9.999999747378752e-05, "l1": 0.0}, "class_name": "L1L2"}, "moving_variance_initializer": {"config": {}, "class_name": "Ones"}, "axis": -1, "gamma_constraint": null, "beta_constraint": null}, "inbound_nodes": [[["concatenate_6", 0, 0, {}]]], "class_name": "BatchNormalization"}, {"name": "activation_9", "config": {"name": "activation_9", "trainable": true, "activation": "relu"}, "inbound_nodes": [[["batch_normalization_9", 0, 0, {}]]], "class_name": "Activation"}, {"name": "conv2d_10", "config": {"kernel_size": [1, 1], "padding": "same", "use_bias": false, "data_format": "channels_last", "name": "conv2d_10", "filters": 96, "bias_constraint": null, "bias_initializer": {"config": {}, "class_name": "Zeros"}, "kernel_initializer": {"config": {"mode": "fan_avg", "distribution": "uniform", "seed": null, "scale": 1.0}, "class_name": "VarianceScaling"}, "kernel_regularizer": {"config": {"l2": 9.999999747378752e-05, "l1": 0.0}, "class_name": "L1L2"}, "activity_regularizer": null, "trainable": true, "bias_regularizer": null, "dilation_rate": [1, 1], "kernel_constraint": null, "activation": "linear", "strides": [1, 1]}, "inbound_nodes": [[["activation_9", 0, 0, {}]]], "class_name": "Conv2D"}, {"name": "dropout_9", "config": {"name": "dropout_9", "noise_shape": null, "trainable": true, "seed": null, "rate": 0.1}, "inbound_nodes": [[["conv2d_10", 0, 0, {}]]], "class_name": "Dropout"}, {"name": "average_pooling2d_3", "config": {"padding": "valid", "trainable": true, "strides": [2, 2], "data_format": "channels_last", "pool_size": [2, 2], "name": "average_pooling2d_3"}, "inbound_nodes": [[["dropout_9", 0, 0, {}]]], "class_name": "AveragePooling2D"}, {"name": "batch_normalization_10", "config": {"momentum": 0.99, "scale": true, "gamma_initializer": {"config": {}, "class_name": "Ones"}, "epsilon": 0.001, "name": "batch_normalization_10", "trainable": true, "moving_mean_initializer": {"config": {}, "class_name": "Zeros"}, "gamma_regularizer": {"config": {"l2": 9.999999747378752e-05, "l1": 0.0}, "class_name": "L1L2"}, "center": true, "beta_initializer": {"config": {}, "class_name": "Zeros"}, "beta_regularizer": {"config": {"l2": 9.999999747378752e-05, "l1": 0.0}, "class_name": "L1L2"}, "moving_variance_initializer": {"config": {}, "class_name": "Ones"}, "axis": -1, "gamma_constraint": null, "beta_constraint": null}, "inbound_nodes": [[["average_pooling2d_3", 0, 0, {}]]], "class_name": "BatchNormalization"}, {"name": "activation_10", "config": {"name": "activation_10", "trainable": true, "activation": "relu"}, "inbound_nodes": [[["batch_normalization_10", 0, 0, {}]]], "class_name": "Activation"}, {"name": "conv2d_11", "config": {"kernel_size": [3, 3], "padding": "same", "use_bias": false, "data_format": "channels_last", "name": "conv2d_11", "filters": 12, "bias_constraint": null, "bias_initializer": {"config": {}, "class_name": "Zeros"}, "kernel_initializer": {"config": {"mode": "fan_avg", "distribution": "uniform", "seed": null, "scale": 1.0}, "class_name": "VarianceScaling"}, "kernel_regularizer": {"config": {"l2": 9.999999747378752e-05, "l1": 0.0}, "class_name": "L1L2"}, "activity_regularizer": null, "trainable": true, "bias_regularizer": null, "dilation_rate": [1, 1], "kernel_constraint": null, "activation": "linear", "strides": [1, 1]}, "inbound_nodes": [[["activation_10", 0, 0, {}]]], "class_name": "Conv2D"}, {"name": "dropout_10", "config": {"name": "dropout_10", "noise_shape": null, "trainable": true, "seed": null, "rate": 0.1}, "inbound_nodes": [[["conv2d_11", 0, 0, {}]]], "class_name": "Dropout"}, {"name": "concatenate_7", "config": {"name": "concatenate_7", "axis": -1, "trainable": true}, "inbound_nodes": [[["average_pooling2d_3", 0, 0, {}], ["dropout_10", 0, 0, {}]]], "class_name": "Concatenate"}, {"name": "batch_normalization_11", "config": {"momentum": 0.99, "scale": true, "gamma_initializer": {"config": {}, "class_name": "Ones"}, "epsilon": 0.001, "name": "batch_normalization_11", "trainable": true, "moving_mean_initializer": {"config": {}, "class_name": "Zeros"}, "gamma_regularizer": {"config": {"l2": 9.999999747378752e-05, "l1": 0.0}, "class_name": "L1L2"}, "center": true, "beta_initializer": {"config": {}, "class_name": "Zeros"}, "beta_regularizer": {"config": {"l2": 9.999999747378752e-05, "l1": 0.0}, "class_name": "L1L2"}, "moving_variance_initializer": {"config": {}, "class_name": "Ones"}, "axis": -1, "gamma_constraint": null, "beta_constraint": null}, "inbound_nodes": [[["concatenate_7", 0, 0, {}]]], "class_name": "BatchNormalization"}, {"name": "activation_11", "config": {"name": "activation_11", "trainable": true, "activation": "relu"}, "inbound_nodes": [[["batch_normalization_11", 0, 0, {}]]], "class_name": "Activation"}, {"name": "conv2d_12", "config": {"kernel_size": [3, 3], "padding": "same", "use_bias": false, "data_format": "channels_last", "name": "conv2d_12", "filters": 12, "bias_constraint": null, "bias_initializer": {"config": {}, "class_name": "Zeros"}, "kernel_initializer": {"config": {"mode": "fan_avg", "distribution": "uniform", "seed": null, "scale": 1.0}, "class_name": "VarianceScaling"}, "kernel_regularizer": {"config": {"l2": 9.999999747378752e-05, "l1": 0.0}, "class_name": "L1L2"}, "activity_regularizer": null, "trainable": true, "bias_regularizer": null, "dilation_rate": [1, 1], "kernel_constraint": null, "activation": "linear", "strides": [1, 1]}, "inbound_nodes": [[["activation_11", 0, 0, {}]]], "class_name": "Conv2D"}, {"name": "dropout_11", "config": {"name": "dropout_11", "noise_shape": null, "trainable": true, "seed": null, "rate": 0.1}, "inbound_nodes": [[["conv2d_12", 0, 0, {}]]], "class_name": "Dropout"}, {"name": "concatenate_8", "config": {"name": "concatenate_8", "axis": -1, "trainable": true}, "inbound_nodes": [[["average_pooling2d_3", 0, 0, {}], ["dropout_10", 0, 0, {}], ["dropout_11", 0, 0, {}]]], "class_name": "Concatenate"}, {"name": "batch_normalization_12", "config": {"momentum": 0.99, "scale": true, "gamma_initializer": {"config": {}, "class_name": "Ones"}, "epsilon": 0.001, "name": "batch_normalization_12", "trainable": true, "moving_mean_initializer": {"config": {}, "class_name": "Zeros"}, "gamma_regularizer": {"config": {"l2": 9.999999747378752e-05, "l1": 0.0}, "class_name": "L1L2"}, "center": true, "beta_initializer": {"config": {}, "class_name": "Zeros"}, "beta_regularizer": {"config": {"l2": 9.999999747378752e-05, "l1": 0.0}, "class_name": "L1L2"}, "moving_variance_initializer": {"config": {}, "class_name": "Ones"}, "axis": -1, "gamma_constraint": null, "beta_constraint": null}, "inbound_nodes": [[["concatenate_8", 0, 0, {}]]], "class_name": "BatchNormalization"}, {"name": "activation_12", "config": {"name": "activation_12", "trainable": true, "activation": "relu"}, "inbound_nodes": [[["batch_normalization_12", 0, 0, {}]]], "class_name": "Activation"}, {"name": "conv2d_13", "config": {"kernel_size": [1, 1], "padding": "same", "use_bias": false, "data_format": "channels_last", "name": "conv2d_13", "filters": 128, "bias_constraint": null, "bias_initializer": {"config": {}, "class_name": "Zeros"}, "kernel_initializer": {"config": {"mode": "fan_avg", "distribution": "uniform", "seed": null, "scale": 1.0}, "class_name": "VarianceScaling"}, "kernel_regularizer": {"config": {"l2": 9.999999747378752e-05, "l1": 0.0}, "class_name": "L1L2"}, "activity_regularizer": null, "trainable": true, "bias_regularizer": null, "dilation_rate": [1, 1], "kernel_constraint": null, "activation": "linear", "strides": [1, 1]}, "inbound_nodes": [[["activation_12", 0, 0, {}]]], "class_name": "Conv2D"}, {"name": "dropout_12", "config": {"name": "dropout_12", "noise_shape": null, "trainable": true, "seed": null, "rate": 0.1}, "inbound_nodes": [[["conv2d_13", 0, 0, {}]]], "class_name": "Dropout"}, {"name": "average_pooling2d_4", "config": {"padding": "valid", "trainable": true, "strides": [2, 2], "data_format": "channels_last", "pool_size": [2, 2], "name": "average_pooling2d_4"}, "inbound_nodes": [[["dropout_12", 0, 0, {}]]], "class_name": "AveragePooling2D"}, {"name": "batch_normalization_13", "config": {"momentum": 0.99, "scale": true, "gamma_initializer": {"config": {}, "class_name": "Ones"}, "epsilon": 0.001, "name": "batch_normalization_13", "trainable": true, "moving_mean_initializer": {"config": {}, "class_name": "Zeros"}, "gamma_regularizer": {"config": {"l2": 9.999999747378752e-05, "l1": 0.0}, "class_name": "L1L2"}, "center": true, "beta_initializer": {"config": {}, "class_name": "Zeros"}, "beta_regularizer": {"config": {"l2": 9.999999747378752e-05, "l1": 0.0}, "class_name": "L1L2"}, "moving_variance_initializer": {"config": {}, "class_name": "Ones"}, "axis": -1, "gamma_constraint": null, "beta_constraint": null}, "inbound_nodes": [[["average_pooling2d_4", 0, 0, {}]]], "class_name": "BatchNormalization"}, {"name": "activation_13", "config": {"name": "activation_13", "trainable": true, "activation": "relu"}, "inbound_nodes": [[["batch_normalization_13", 0, 0, {}]]], "class_name": "Activation"}, {"name": "conv2d_14", "config": {"kernel_size": [3, 3], "padding": "same", "use_bias": false, "data_format": "channels_last", "name": "conv2d_14", "filters": 12, "bias_constraint": null, "bias_initializer": {"config": {}, "class_name": "Zeros"}, "kernel_initializer": {"config": {"mode": "fan_avg", "distribution": "uniform", "seed": null, "scale": 1.0}, "class_name": "VarianceScaling"}, "kernel_regularizer": {"config": {"l2": 9.999999747378752e-05, "l1": 0.0}, "class_name": "L1L2"}, "activity_regularizer": null, "trainable": true, "bias_regularizer": null, "dilation_rate": [1, 1], "kernel_constraint": null, "activation": "linear", "strides": [1, 1]}, "inbound_nodes": [[["activation_13", 0, 0, {}]]], "class_name": "Conv2D"}, {"name": "dropout_13", "config": {"name": "dropout_13", "noise_shape": null, "trainable": true, "seed": null, "rate": 0.1}, "inbound_nodes": [[["conv2d_14", 0, 0, {}]]], "class_name": "Dropout"}, {"name": "concatenate_9", "config": {"name": "concatenate_9", "axis": -1, "trainable": true}, "inbound_nodes": [[["average_pooling2d_4", 0, 0, {}], ["dropout_13", 0, 0, {}]]], "class_name": "Concatenate"}, {"name": "batch_normalization_14", "config": {"momentum": 0.99, "scale": true, "gamma_initializer": {"config": {}, "class_name": "Ones"}, "epsilon": 0.001, "name": "batch_normalization_14", "trainable": true, "moving_mean_initializer": {"config": {}, "class_name": "Zeros"}, "gamma_regularizer": {"config": {"l2": 9.999999747378752e-05, "l1": 0.0}, "class_name": "L1L2"}, "center": true, "beta_initializer": {"config": {}, "class_name": "Zeros"}, "beta_regularizer": {"config": {"l2": 9.999999747378752e-05, "l1": 0.0}, "class_name": "L1L2"}, "moving_variance_initializer": {"config": {}, "class_name": "Ones"}, "axis": -1, "gamma_constraint": null, "beta_constraint": null}, "inbound_nodes": [[["concatenate_9", 0, 0, {}]]], "class_name": "BatchNormalization"}, {"name": "activation_14", "config": {"name": "activation_14", "trainable": true, "activation": "relu"}, "inbound_nodes": [[["batch_normalization_14", 0, 0, {}]]], "class_name": "Activation"}, {"name": "conv2d_15", "config": {"kernel_size": [3, 3], "padding": "same", "use_bias": false, "data_format": "channels_last", "name": "conv2d_15", "filters": 12, "bias_constraint": null, "bias_initializer": {"config": {}, "class_name": "Zeros"}, "kernel_initializer": {"config": {"mode": "fan_avg", "distribution": "uniform", "seed": null, "scale": 1.0}, "class_name": "VarianceScaling"}, "kernel_regularizer": {"config": {"l2": 9.999999747378752e-05, "l1": 0.0}, "class_name": "L1L2"}, "activity_regularizer": null, "trainable": true, "bias_regularizer": null, "dilation_rate": [1, 1], "kernel_constraint": null, "activation": "linear", "strides": [1, 1]}, "inbound_nodes": [[["activation_14", 0, 0, {}]]], "class_name": "Conv2D"}, {"name": "dropout_14", "config": {"name": "dropout_14", "noise_shape": null, "trainable": true, "seed": null, "rate": 0.1}, "inbound_nodes": [[["conv2d_15", 0, 0, {}]]], "class_name": "Dropout"}, {"name": "concatenate_10", "config": {"name": "concatenate_10", "axis": -1, "trainable": true}, "inbound_nodes": [[["average_pooling2d_4", 0, 0, {}], ["dropout_13", 0, 0, {}], ["dropout_14", 0, 0, {}]]], "class_name": "Concatenate"}, {"name": "batch_normalization_15", "config": {"momentum": 0.99, "scale": true, "gamma_initializer": {"config": {}, "class_name": "Ones"}, "epsilon": 0.001, "name": "batch_normalization_15", "trainable": true, "moving_mean_initializer": {"config": {}, "class_name": "Zeros"}, "gamma_regularizer": {"config": {"l2": 9.999999747378752e-05, "l1": 0.0}, "class_name": "L1L2"}, "center": true, "beta_initializer": {"config": {}, "class_name": "Zeros"}, "beta_regularizer": {"config": {"l2": 9.999999747378752e-05, "l1": 0.0}, "class_name": "L1L2"}, "moving_variance_initializer": {"config": {}, "class_name": "Ones"}, "axis": -1, "gamma_constraint": null, "beta_constraint": null}, "inbound_nodes": [[["concatenate_10", 0, 0, {}]]], "class_name": "BatchNormalization"}, {"name": "activation_15", "config": {"name": "activation_15", "trainable": true, "activation": "relu"}, "inbound_nodes": [[["batch_normalization_15", 0, 0, {}]]], "class_name": "Activation"}, {"name": "conv2d_16", "config": {"kernel_size": [1, 1], "padding": "same", "use_bias": false, "data_format": "channels_last", "name": "conv2d_16", "filters": 160, "bias_constraint": null, "bias_initializer": {"config": {}, "class_name": "Zeros"}, "kernel_initializer": {"config": {"mode": "fan_avg", "distribution": "uniform", "seed": null, "scale": 1.0}, "class_name": "VarianceScaling"}, "kernel_regularizer": {"config": {"l2": 9.999999747378752e-05, "l1": 0.0}, "class_name": "L1L2"}, "activity_regularizer": null, "trainable": true, "bias_regularizer": null, "dilation_rate": [1, 1], "kernel_constraint": null, "activation": "linear", "strides": [1, 1]}, "inbound_nodes": [[["activation_15", 0, 0, {}]]], "class_name": "Conv2D"}, {"name": "dropout_15", "config": {"name": "dropout_15", "noise_shape": null, "trainable": true, "seed": null, "rate": 0.1}, "inbound_nodes": [[["conv2d_16", 0, 0, {}]]], "class_name": "Dropout"}, {"name": "average_pooling2d_5", "config": {"padding": "valid", "trainable": true, "strides": [2, 2], "data_format": "channels_last", "pool_size": [2, 2], "name": "average_pooling2d_5"}, "inbound_nodes": [[["dropout_15", 0, 0, {}]]], "class_name": "AveragePooling2D"}, {"name": "batch_normalization_16", "config": {"momentum": 0.99, "scale": true, "gamma_initializer": {"config": {}, "class_name": "Ones"}, "epsilon": 0.001, "name": "batch_normalization_16", "trainable": true, "moving_mean_initializer": {"config": {}, "class_name": "Zeros"}, "gamma_regularizer": {"config": {"l2": 9.999999747378752e-05, "l1": 0.0}, "class_name": "L1L2"}, "center": true, "beta_initializer": {"config": {}, "class_name": "Zeros"}, "beta_regularizer": {"config": {"l2": 9.999999747378752e-05, "l1": 0.0}, "class_name": "L1L2"}, "moving_variance_initializer": {"config": {}, "class_name": "Ones"}, "axis": -1, "gamma_constraint": null, "beta_constraint": null}, "inbound_nodes": [[["average_pooling2d_5", 0, 0, {}]]], "class_name": "BatchNormalization"}, {"name": "activation_16", "config": {"name": "activation_16", "trainable": true, "activation": "relu"}, "inbound_nodes": [[["batch_normalization_16", 0, 0, {}]]], "class_name": "Activation"}, {"name": "conv2d_17", "config": {"kernel_size": [3, 3], "padding": "same", "use_bias": false, "data_format": "channels_last", "name": "conv2d_17", "filters": 12, "bias_constraint": null, "bias_initializer": {"config": {}, "class_name": "Zeros"}, "kernel_initializer": {"config": {"mode": "fan_avg", "distribution": "uniform", "seed": null, "scale": 1.0}, "class_name": "VarianceScaling"}, "kernel_regularizer": {"config": {"l2": 9.999999747378752e-05, "l1": 0.0}, "class_name": "L1L2"}, "activity_regularizer": null, "trainable": true, "bias_regularizer": null, "dilation_rate": [1, 1], "kernel_constraint": null, "activation": "linear", "strides": [1, 1]}, "inbound_nodes": [[["activation_16", 0, 0, {}]]], "class_name": "Conv2D"}, {"name": "dropout_16", "config": {"name": "dropout_16", "noise_shape": null, "trainable": true, "seed": null, "rate": 0.1}, "inbound_nodes": [[["conv2d_17", 0, 0, {}]]], "class_name": "Dropout"}, {"name": "concatenate_11", "config": {"name": "concatenate_11", "axis": -1, "trainable": true}, "inbound_nodes": [[["average_pooling2d_5", 0, 0, {}], ["dropout_16", 0, 0, {}]]], "class_name": "Concatenate"}, {"name": "batch_normalization_17", "config": {"momentum": 0.99, "scale": true, "gamma_initializer": {"config": {}, "class_name": "Ones"}, "epsilon": 0.001, "name": "batch_normalization_17", "trainable": true, "moving_mean_initializer": {"config": {}, "class_name": "Zeros"}, "gamma_regularizer": {"config": {"l2": 9.999999747378752e-05, "l1": 0.0}, "class_name": "L1L2"}, "center": true, "beta_initializer": {"config": {}, "class_name": "Zeros"}, "beta_regularizer": {"config": {"l2": 9.999999747378752e-05, "l1": 0.0}, "class_name": "L1L2"}, "moving_variance_initializer": {"config": {}, "class_name": "Ones"}, "axis": -1, "gamma_constraint": null, "beta_constraint": null}, "inbound_nodes": [[["concatenate_11", 0, 0, {}]]], "class_name": "BatchNormalization"}, {"name": "activation_17", "config": {"name": "activation_17", "trainable": true, "activation": "relu"}, "inbound_nodes": [[["batch_normalization_17", 0, 0, {}]]], "class_name": "Activation"}, {"name": "landsat_input", "config": {"name": "landsat_input", "dtype": "float32", "batch_input_shape": [null, 12, 4, 4, 7], "sparse": false}, "inbound_nodes": [], "class_name": "InputLayer"}, {"name": "conv2d_18", "config": {"kernel_size": [3, 3], "padding": "same", "use_bias": false, "data_format": "channels_last", "name": "conv2d_18", "filters": 12, "bias_constraint": null, "bias_initializer": {"config": {}, "class_name": "Zeros"}, "kernel_initializer": {"config": {"mode": "fan_avg", "distribution": "uniform", "seed": null, "scale": 1.0}, "class_name": "VarianceScaling"}, "kernel_regularizer": {"config": {"l2": 9.999999747378752e-05, "l1": 0.0}, "class_name": "L1L2"}, "activity_regularizer": null, "trainable": true, "bias_regularizer": null, "dilation_rate": [1, 1], "kernel_constraint": null, "activation": "linear", "strides": [1, 1]}, "inbound_nodes": [[["activation_17", 0, 0, {}]]], "class_name": "Conv2D"}, {"name": "time_distributed_1", "config": {"name": "time_distributed_1", "trainable": true, "layer": {"config": {"kernel_size": [3, 3], "padding": "same", "use_bias": true, "data_format": "channels_last", "name": "conv2d_19", "filters": 64, "bias_constraint": null, "bias_initializer": {"config": {}, "class_name": "Zeros"}, "kernel_initializer": {"config": {"mode": "fan_avg", "distribution": "uniform", "seed": null, "scale": 1.0}, "class_name": "VarianceScaling"}, "kernel_regularizer": null, "activity_regularizer": null, "trainable": true, "bias_regularizer": null, "dilation_rate": [1, 1], "kernel_constraint": null, "activation": "relu", "strides": [1, 1]}, "class_name": "Conv2D"}}, "inbound_nodes": [[["landsat_input", 0, 0, {}]]], "class_name": "TimeDistributed"}, {"name": "terrain_input", "config": {"name": "terrain_input", "dtype": "float32", "batch_input_shape": [null, 1, 3], "sparse": false}, "inbound_nodes": [], "class_name": "InputLayer"}, {"name": "climate_input", "config": {"name": "climate_input", "dtype": "float32", "batch_input_shape": [null, 1, 14], "sparse": false}, "inbound_nodes": [], "class_name": "InputLayer"}, {"name": "dropout_17", "config": {"name": "dropout_17", "noise_shape": null, "trainable": true, "seed": null, "rate": 0.1}, "inbound_nodes": [[["conv2d_18", 0, 0, {}]]], "class_name": "Dropout"}, {"name": "time_distributed_2", "config": {"name": "time_distributed_2", "trainable": true, "layer": {"config": {"kernel_size": [3, 3], "padding": "same", "use_bias": true, "data_format": "channels_last", "name": "conv2d_20", "filters": 64, "bias_constraint": null, "bias_initializer": {"config": {}, "class_name": "Zeros"}, "kernel_initializer": {"config": {"mode": "fan_avg", "distribution": "uniform", "seed": null, "scale": 1.0}, "class_name": "VarianceScaling"}, "kernel_regularizer": null, "activity_regularizer": null, "trainable": true, "bias_regularizer": null, "dilation_rate": [1, 1], "kernel_constraint": null, "activation": "relu", "strides": [1, 1]}, "class_name": "Conv2D"}}, "inbound_nodes": [[["time_distributed_1", 0, 0, {}]]], "class_name": "TimeDistributed"}, {"name": "flatten_1", "config": {"name": "flatten_1", "trainable": true}, "inbound_nodes": [[["terrain_input", 0, 0, {}]]], "class_name": "Flatten"}, {"name": "flatten_2", "config": {"name": "flatten_2", "trainable": true}, "inbound_nodes": [[["climate_input", 0, 0, {}]]], "class_name": "Flatten"}, {"name": "concatenate_12", "config": {"name": "concatenate_12", "axis": -1, "trainable": true}, "inbound_nodes": [[["average_pooling2d_5", 0, 0, {}], ["dropout_16", 0, 0, {}], ["dropout_17", 0, 0, {}]]], "class_name": "Concatenate"}, {"name": "time_distributed_3", "config": {"name": "time_distributed_3", "trainable": true, "layer": {"config": {"kernel_size": [3, 3], "padding": "same", "use_bias": true, "data_format": "channels_last", "name": "conv2d_21", "filters": 128, "bias_constraint": null, "bias_initializer": {"config": {}, "class_name": "Zeros"}, "kernel_initializer": {"config": {"mode": "fan_avg", "distribution": "uniform", "seed": null, "scale": 1.0}, "class_name": "VarianceScaling"}, "kernel_regularizer": null, "activity_regularizer": null, "trainable": true, "bias_regularizer": null, "dilation_rate": [1, 1], "kernel_constraint": null, "activation": "relu", "strides": [1, 1]}, "class_name": "Conv2D"}}, "inbound_nodes": [[["time_distributed_2", 0, 0, {}]]], "class_name": "TimeDistributed"}, {"name": "dense_2", "config": {"bias_constraint": null, "units": 16, "kernel_initializer": {"config": {"mode": "fan_avg", "distribution": "uniform", "seed": null, "scale": 1.0}, "class_name": "VarianceScaling"}, "name": "dense_2", "kernel_constraint": null, "bias_initializer": {"config": {}, "class_name": "Zeros"}, "trainable": true, "kernel_regularizer": null, "activity_regularizer": null, "use_bias": true, "bias_regularizer": null, "activation": "linear"}, "inbound_nodes": [[["flatten_1", 0, 0, {}]]], "class_name": "Dense"}, {"name": "dense_3", "config": {"bias_constraint": null, "units": 64, "kernel_initializer": {"config": {"mode": "fan_avg", "distribution": "uniform", "seed": null, "scale": 1.0}, "class_name": "VarianceScaling"}, "name": "dense_3", "kernel_constraint": null, "bias_initializer": {"config": {}, "class_name": "Zeros"}, "trainable": true, "kernel_regularizer": null, "activity_regularizer": null, "use_bias": true, "bias_regularizer": null, "activation": "linear"}, "inbound_nodes": [[["flatten_2", 0, 0, {}]]], "class_name": "Dense"}, {"name": "batch_normalization_18", "config": {"momentum": 0.99, "scale": true, "gamma_initializer": {"config": {}, "class_name": "Ones"}, "epsilon": 0.001, "name": "batch_normalization_18", "trainable": true, "moving_mean_initializer": {"config": {}, "class_name": "Zeros"}, "gamma_regularizer": {"config": {"l2": 9.999999747378752e-05, "l1": 0.0}, "class_name": "L1L2"}, "center": true, "beta_initializer": {"config": {}, "class_name": "Zeros"}, "beta_regularizer": {"config": {"l2": 9.999999747378752e-05, "l1": 0.0}, "class_name": "L1L2"}, "moving_variance_initializer": {"config": {}, "class_name": "Ones"}, "axis": -1, "gamma_constraint": null, "beta_constraint": null}, "inbound_nodes": [[["concatenate_12", 0, 0, {}]]], "class_name": "BatchNormalization"}, {"name": "time_distributed_4", "config": {"name": "time_distributed_4", "trainable": true, "layer": {"config": {"name": "flatten_3", "trainable": true}, "class_name": "Flatten"}}, "inbound_nodes": [[["time_distributed_3", 0, 0, {}]]], "class_name": "TimeDistributed"}, {"name": "batch_normalization_19", "config": {"momentum": 0.99, "scale": true, "gamma_initializer": {"config": {}, "class_name": "Ones"}, "epsilon": 0.001, "name": "batch_normalization_19", "trainable": true, "moving_mean_initializer": {"config": {}, "class_name": "Zeros"}, "gamma_regularizer": null, "center": true, "beta_initializer": {"config": {}, "class_name": "Zeros"}, "beta_regularizer": null, "moving_variance_initializer": {"config": {}, "class_name": "Ones"}, "axis": -1, "gamma_constraint": null, "beta_constraint": null}, "inbound_nodes": [[["dense_2", 0, 0, {}]]], "class_name": "BatchNormalization"}, {"name": "batch_normalization_20", "config": {"momentum": 0.99, "scale": true, "gamma_initializer": {"config": {}, "class_name": "Ones"}, "epsilon": 0.001, "name": "batch_normalization_20", "trainable": true, "moving_mean_initializer": {"config": {}, "class_name": "Zeros"}, "gamma_regularizer": null, "center": true, "beta_initializer": {"config": {}, "class_name": "Zeros"}, "beta_regularizer": null, "moving_variance_initializer": {"config": {}, "class_name": "Ones"}, "axis": -1, "gamma_constraint": null, "beta_constraint": null}, "inbound_nodes": [[["dense_3", 0, 0, {}]]], "class_name": "BatchNormalization"}, {"name": "activation_18", "config": {"name": "activation_18", "trainable": true, "activation": "relu"}, "inbound_nodes": [[["batch_normalization_18", 0, 0, {}]]], "class_name": "Activation"}, {"name": "split_branch", "config": {"name": "split_branch", "noise_shape": null, "trainable": true, "seed": null, "rate": 0.1}, "inbound_nodes": [[["time_distributed_4", 0, 0, {}]]], "class_name": "Dropout"}, {"name": "activation_19", "config": {"name": "activation_19", "trainable": true, "activation": "relu"}, "inbound_nodes": [[["batch_normalization_19", 0, 0, {}]]], "class_name": "Activation"}, {"name": "activation_20", "config": {"name": "activation_20", "trainable": true, "activation": "relu"}, "inbound_nodes": [[["batch_normalization_20", 0, 0, {}]]], "class_name": "Activation"}, {"name": "global_average_pooling2d_1", "config": {"name": "global_average_pooling2d_1", "trainable": true, "data_format": "channels_last"}, "inbound_nodes": [[["activation_18", 0, 0, {}]]], "class_name": "GlobalAveragePooling2D"}, {"name": "lstm_1", "config": {"units": 64, "kernel_initializer": {"config": {"mode": "fan_avg", "distribution": "uniform", "seed": null, "scale": 1.0}, "class_name": "VarianceScaling"}, "stateful": false, "kernel_regularizer": null, "recurrent_constraint": null, "recurrent_initializer": {"config": {"seed": null, "gain": 1.0}, "class_name": "Orthogonal"}, "activity_regularizer": null, "dropout": 0.2, "trainable": true, "return_state": false, "bias_regularizer": null, "return_sequences": false, "recurrent_dropout": 0.0, "activation": "tanh", "bias_constraint": null, "name": "lstm_1", "unit_forget_bias": true, "bias_initializer": {"config": {}, "class_name": "Zeros"}, "use_bias": true, "unroll": false, "recurrent_activation": "hard_sigmoid", "implementation": 1, "recurrent_regularizer": null, "go_backwards": false, "kernel_constraint": null}, "inbound_nodes": [[["split_branch", 0, 0, {}]]], "class_name": "LSTM"}, {"name": "aux_merge", "config": {"name": "aux_merge", "axis": -1, "trainable": true}, "inbound_nodes": [[["activation_19", 0, 0, {}], ["activation_20", 0, 0, {}]]], "class_name": "Concatenate"}, {"name": "dense_1", "config": {"bias_constraint": null, "units": 256, "kernel_initializer": {"config": {"mean": 0.0, "seed": null, "stddev": 0.05}, "class_name": "RandomNormal"}, "name": "dense_1", "kernel_constraint": null, "bias_initializer": {"config": {}, "class_name": "Zeros"}, "trainable": true, "kernel_regularizer": null, "activity_regularizer": null, "use_bias": true, "bias_regularizer": null, "activation": "relu"}, "inbound_nodes": [[["global_average_pooling2d_1", 0, 0, {}]]], "class_name": "Dense"}, {"name": "dense_4", "config": {"bias_constraint": null, "units": 64, "kernel_initializer": {"config": {"mode": "fan_avg", "distribution": "uniform", "seed": null, "scale": 1.0}, "class_name": "VarianceScaling"}, "name": "dense_4", "kernel_constraint": null, "bias_initializer": {"config": {}, "class_name": "Zeros"}, "trainable": true, "kernel_regularizer": null, "activity_regularizer": null, "use_bias": true, "bias_regularizer": null, "activation": "linear"}, "inbound_nodes": [[["lstm_1", 0, 0, {}]]], "class_name": "Dense"}, {"name": "dense_5", "config": {"bias_constraint": null, "units": 64, "kernel_initializer": {"config": {"mode": "fan_avg", "distribution": "uniform", "seed": null, "scale": 1.0}, "class_name": "VarianceScaling"}, "name": "dense_5", "kernel_constraint": null, "bias_initializer": {"config": {}, "class_name": "Zeros"}, "trainable": true, "kernel_regularizer": null, "activity_regularizer": null, "use_bias": true, "bias_regularizer": null, "activation": "linear"}, "inbound_nodes": [[["aux_merge", 0, 0, {}]]], "class_name": "Dense"}, {"name": "merge0", "config": {"name": "merge0", "axis": -1, "trainable": true}, "inbound_nodes": [[["dense_1", 0, 0, {}], ["dense_4", 0, 0, {}], ["dense_5", 0, 0, {}]]], "class_name": "Concatenate"}, {"name": "merge1", "config": {"name": "merge1", "axis": -1, "trainable": true}, "inbound_nodes": [[["dense_1", 0, 0, {}], ["dense_4", 0, 0, {}], ["dense_5", 0, 0, {}]]], "class_name": "Concatenate"}, {"name": "dense_6", "config": {"bias_constraint": null, "units": 256, "kernel_initializer": {"config": {"mode": "fan_avg", "distribution": "uniform", "seed": null, "scale": 1.0}, "class_name": "VarianceScaling"}, "name": "dense_6", "kernel_constraint": null, "bias_initializer": {"config": {}, "class_name": "Zeros"}, "trainable": true, "kernel_regularizer": null, "activity_regularizer": null, "use_bias": true, "bias_regularizer": null, "activation": "linear"}, "inbound_nodes": [[["merge0", 0, 0, {}]]], "class_name": "Dense"}, {"name": "dense_10", "config": {"bias_constraint": null, "units": 512, "kernel_initializer": {"config": {"mode": "fan_avg", "distribution": "uniform", "seed": null, "scale": 1.0}, "class_name": "VarianceScaling"}, "name": "dense_10", "kernel_constraint": null, "bias_initializer": {"config": {}, "class_name": "Zeros"}, "trainable": true, "kernel_regularizer": null, "activity_regularizer": null, "use_bias": true, "bias_regularizer": null, "activation": "linear"}, "inbound_nodes": [[["merge1", 0, 0, {}]]], "class_name": "Dense"}, {"name": "dense_7", "config": {"bias_constraint": null, "units": 128, "kernel_initializer": {"config": {"mode": "fan_avg", "distribution": "uniform", "seed": null, "scale": 1.0}, "class_name": "VarianceScaling"}, "name": "dense_7", "kernel_constraint": null, "bias_initializer": {"config": {}, "class_name": "Zeros"}, "trainable": true, "kernel_regularizer": null, "activity_regularizer": null, "use_bias": true, "bias_regularizer": null, "activation": "linear"}, "inbound_nodes": [[["dense_6", 0, 0, {}]]], "class_name": "Dense"}, {"name": "dense_11", "config": {"bias_constraint": null, "units": 256, "kernel_initializer": {"config": {"mode": "fan_avg", "distribution": "uniform", "seed": null, "scale": 1.0}, "class_name": "VarianceScaling"}, "name": "dense_11", "kernel_constraint": null, "bias_initializer": {"config": {}, "class_name": "Zeros"}, "trainable": true, "kernel_regularizer": null, "activity_regularizer": null, "use_bias": true, "bias_regularizer": null, "activation": "linear"}, "inbound_nodes": [[["dense_10", 0, 0, {}]]], "class_name": "Dense"}, {"name": "dense_8", "config": {"bias_constraint": null, "units": 64, "kernel_initializer": {"config": {"mode": "fan_avg", "distribution": "uniform", "seed": null, "scale": 1.0}, "class_name": "VarianceScaling"}, "name": "dense_8", "kernel_constraint": null, "bias_initializer": {"config": {}, "class_name": "Zeros"}, "trainable": true, "kernel_regularizer": null, "activity_regularizer": null, "use_bias": true, "bias_regularizer": null, "activation": "linear"}, "inbound_nodes": [[["dense_7", 0, 0, {}]]], "class_name": "Dense"}, {"name": "dense_12", "config": {"bias_constraint": null, "units": 128, "kernel_initializer": {"config": {"mode": "fan_avg", "distribution": "uniform", "seed": null, "scale": 1.0}, "class_name": "VarianceScaling"}, "name": "dense_12", "kernel_constraint": null, "bias_initializer": {"config": {}, "class_name": "Zeros"}, "trainable": true, "kernel_regularizer": null, "activity_regularizer": null, "use_bias": true, "bias_regularizer": null, "activation": "linear"}, "inbound_nodes": [[["dense_11", 0, 0, {}]]], "class_name": "Dense"}, {"name": "dense_9", "config": {"bias_constraint": null, "units": 5, "kernel_initializer": {"config": {"mode": "fan_avg", "distribution": "uniform", "seed": null, "scale": 1.0}, "class_name": "VarianceScaling"}, "name": "dense_9", "kernel_constraint": null, "bias_initializer": {"config": {}, "class_name": "Zeros"}, "trainable": true, "kernel_regularizer": null, "activity_regularizer": null, "use_bias": true, "bias_regularizer": null, "activation": "linear"}, "inbound_nodes": [[["dense_8", 0, 0, {}]]], "class_name": "Dense"}, {"name": "dense_13", "config": {"bias_constraint": null, "units": 4, "kernel_initializer": {"config": {"mode": "fan_avg", "distribution": "uniform", "seed": null, "scale": 1.0}, "class_name": "VarianceScaling"}, "name": "dense_13", "kernel_constraint": null, "bias_initializer": {"config": {}, "class_name": "Zeros"}, "trainable": true, "kernel_regularizer": null, "activity_regularizer": null, "use_bias": true, "bias_regularizer": null, "activation": "linear"}, "inbound_nodes": [[["dense_12", 0, 0, {}]]], "class_name": "Dense"}, {"name": "fc_class_layer", "config": {"name": "fc_class_layer", "trainable": true, "activation": "softmax"}, "inbound_nodes": [[["dense_9", 0, 0, {}]]], "class_name": "Activation"}, {"name": "fc_regress_layer", "config": {"name": "fc_regress_layer", "trainable": true, "activation": "relu"}, "inbound_nodes": [[["dense_13", 0, 0, {}]]], "class_name": "Activation"}], "output_layers": [["fc_class_layer", 0, 0], ["fc_regress_layer", 0, 0]], "input_layers": [["naip_input", 0, 0], ["terrain_input", 0, 0], ["climate_input", 0, 0], ["landsat_input", 0, 0]]}, "keras_version": "2.1.5", "class_name": "Model"}